submodel_conv.onnx (onnx, 37338 bytes, 2 tensors)

backbone.shared_mlp.weight f4 [1024, 8, 1, 1]
0	0x3e6ba4be	0.23012063
1	0x3d758225	0.05993857
2	0xbe490ad7	-0.19633041
3	0xbe735b85	-0.2376538
4	0xbe8b251d	-0.27176753
5	0xbe88f1fe	-0.26747125
6	0xbe831061	-0.25598434
7	0xbeab6516	-0.3347556
8	0xbe965cef	-0.29367778
9	0x3e93c5e7	0.28861925
10	0x3e539c1c	0.2066502
11	0xbe00c763	-0.1257606
12	0x3d17ae33	0.037031364
13	0xbe9aeb31	-0.30257562
14	0x3e560e49	0.20903887
15	0x3e61da61	0.22055961
16	0x3e83d743	0.2575017
17	0x3e5a7a55	0.21335728
18	0x3e9d43a6	0.30715674
19	0xbe1cddb6	-0.15318951
20	0x3eab3c60	0.334445
21	0xbe9d94f0	-0.30777693
22	0x3de30ec9	0.110868044
23	0x3d1c1e9c	0.03811513
24	0x3deb95a9	0.11503155
25	0x3e9ebed7	0.31004974
26	0xbde1fa60	-0.11034083
27	0xbe8f9f3a	-0.28051168
28	0xbe543787	-0.20724307
29	0x3ca7dcd2	0.020491038
30	0x3c2130ed	0.009838325
31	0x3e71aac6	0.23600301
32	0xbe2f66db	-0.1712908
33	0xbe433ca2	-0.19066098
34	0xbe93d2dc	-0.2887181
35	0xbe04b7d3	-0.12960748
36	0xbbf86eb0	-0.0075815544
37	0xbdaebea2	-0.08532454
38	0x3cbcf814	0.023067512
39	0x3e4b6276	0.19861779
40	0x3e887459	0.26651266
41	0xbde73771	-0.112898715
42	0xbe80377b	-0.25042328
43	0xbe829810	-0.2550664
44	0xbdc71eea	-0.09722693
45	0xbe222865	-0.15835722
46	0x3e62b430	0.22139049
47	0xbead3513	-0.33829555
48	0xbd54a735	-0.051917274
49	0x3e817d4a	0.252909
50	0x3e8877c9	0.2665389
51	0xbe1de3f0	-0.15418983
52	0x3cdc29ba	0.026875366
53	0x3ea10c0d	0.31454507
54	0x3e792428	0.24330199
55	0xbda96c61	-0.08272625
56	0x3db7fe16	0.0898401
57	0xbd9f9492	-0.077920094
58	0x3d9ff787	0.07810884
59	0xbd3c172d	-0.04592054
60	0x3dfedec1	0.12444831
61	0xbe9d0a34	-0.30671847
62	0xbce64657	-0.028109713
63	0xbe7a2be2	-0.24430802
64	0xbea0295a	-0.3128155
65	0x3e7b3a94	0.24534065
66	0xbe85d5bd	-0.26139632
67	0xbe78c980	-0.24295616
68	0xbdd43553	-0.10361733
69	0x3e67fc06	0.22654733
70	0xbe68d4b1	-0.22737385
71	0x3dbf8b1d	0.09352706
72	0xbb8a6d32	-0.004224443
73	0xbe2aeae6	-0.16691169
74	0xbeacd44e	-0.33755726
75	0x3e85ea08	0.26155114
76	0x3e0a7866	0.13522491
77	0xbe19f00d	-0.15032978
78	0x3e85d94c	0.26142347
79	0xbe5b6648	-0.21425736
80	0xbe5bd66f	-0.21468519
81	0x3e544132	0.20727995
82	0x3e71dbda	0.23619023
83	0xbe8dd3ee	-0.27700752
84	0x3ea93193	0.33045635
85	0xbe41b7d9	-0.18917789
86	0xbdca3760	-0.09873843
87	0x3ddd8da1	0.10818029
88	0x3e77ce29	0.24199738
89	0x3ea1fea8	0.316396
90	0xbe31c247	-0.17359267
91	0xbdb30329	-0.08740837
92	0xbdebcb9b	-0.11513444
93	0x3e776739	0.2416047
94	0x3d4f82cf	0.05066186
95	0x3d639ac1	0.055567507
96	0xbe8b0869	-0.27154854
97	0xbe909aad	-0.28243008
98	0xbd320d83	-0.043469917
99	0xbe06eea5	-0.13176973
100	0x3e8c4239	0.27394274
101	0xbe3b42b4	-0.18287164
102	0x3e692b98	0.22770536
103	0xbe93ab8b	-0.28841814
104	0x3d817a37	0.06322139
105	0x3e64e8c7	0.22354423
106	0x3e9aa2c6	0.3020231
107	0xbe661e5d	-0.2247252
108	0xbe072d4a	-0.1320087
109	0xbe0506c0	-0.12990856
110	0xbe88b05d	-0.26697055
111	0xbe588e3b	-0.21148007
112	0x3e0c2be5	0.1368862
113	0xbe92af90	-0.2864957
114	0xbe881dc7	-0.26585218
115	0x3dc54135	0.09631578
116	0x3cab6222	0.020920817
117	0x3d0c5140	0.034257174
118	0x3dcaab17	0.09895914
119	0xbc1921bb	-0.009346421
120	0x3dce16d2	0.100629464
121	0xbe60e115	-0.21960862
122	0x3e2328f8	0.15933597
123	0xbdcec258	-0.10095662
124	0xbe3c1edc	-0.18371147
125	0xbdefb5a1	-0.11704565
126	0xbda7778e	-0.081771
127	0x3d9d995b	0.07695266
128	0xbe4f9fd6	-0.20275816
129	0xbe586fb8	-0.21136367
130	0x3d1d9326	0.03847041
131	0xbe6b0f3c	-0.2295503
132	0x3e6c9c1f	0.2310643
133	0xbd9aa7df	-0.0755155
134	0x3d963fba	0.073363736
135	0x3d4a0849	0.049324308
136	0x3de8570d	0.113447286
137	0x3e9e4d68	0.3091843
138	0xbcafdf7c	-0.02146887
139	0xbe5bd81e	-0.21469161
140	0xbe99337b	-0.2992209
141	0x3e8e99b7	0.2785165
142	0x3e958075	0.29199567
143	0x3ea2305e	0.31677526
144	0xbe6baa1b	-0.23014109
145	0xbc4f6a33	-0.012659597
146	0x3e8ca02c	0.2746595
147	0x3cc4c132	0.024017904
148	0xbe02c092	-0.12768772
149	0x3e163e68	0.14672244
150	0x3e6c8dd3	0.23100977
151	0x3e967d29	0.29392365
152	0x3e45d723	0.1932035
153	0xbe95b1f4	-0.2923733
154	0xbb95ac7b	-0.0045676804
155	0xbe6349dd	-0.22196145
156	0x3e974eaf	0.29552218
157	0xbd9afc7f	-0.07567691
158	0x3d1933cb	0.03740291
159	0xbe56235e	-0.20911929
160	0x3d89256a	0.06696589
161	0xbd683adb	-0.056696754
162	0xbccedf18	-0.025252864
163	0xbea574f0	-0.3231578
164	0xbe351d35	-0.17686923
165	0x3e66e265	0.225473
166	0x3e2c9833	0.16854934
167	0x3d2d8ba4	0.0423695
168	0xbe6ffa0f	-0.23435234
169	0xbdce79ec	-0.100818485
170	0xbe04814d	-0.1293995
171	0xbdb61552	-0.08890785
172	0xbe540569	-0.20705189
173	0x3d8868eb	0.066606365
174	0x3e670db6	0.22563824
175	0xbda0462b	-0.078258835
176	0xbe280532	-0.16408232
177	0xbea91d18	-0.3303001
178	0xbc5e00f3	-0.013550031
179	0xbd73fd64	-0.059567824
180	0xbea75cec	-0.3268808
181	0x3e9c2dcb	0.30503687
182	0x3e2c94b5	0.16853602
183	0x3d643369	0.05571309
184	0x3e9f6cb2	0.31137615
185	0xbea8dbba	-0.32980138
186	0x3d952a80	0.07283497
187	0x3e1fdeb8	0.15612304
188	0x3e0949d2	0.13407066
189	0xbe8397fd	-0.25701895
190	0x3df9eea4	0.1220372
191	0x3b9568d0	0.0045596138
192	0xbbe304a2	-0.0069280425
193	0xbea01069	-0.3126252
194	0x3da29cfe	0.079401
195	0xbd831f06	-0.064024016
196	0x3d19ed2b	0.037579697
197	0xbd973339	-0.07382817
198	0x3e9021f6	0.2815091
199	0x3c4f2f85	0.012645607
200	0x3d959bf3	0.073051356
201	0xbe683715	-0.22677262
202	0xbc3fc2e8	-0.011704184
203	0x3d57d427	0.05269256
204	0xbe5472d6	-0.20746931
205	0x3e9e97a4	0.30975068
206	0x3d46af77	0.04850718
207	0xbe1d3e72	-0.15355852
208	0xbd24a0e2	-0.040192492
209	0x3e5806be	0.21096322
210	0x3e2018aa	0.15634409
211	0x3ea57940	0.3231907
212	0x3e3036cc	0.17208403
213	0xbe0d0fd7	-0.13775574
214	0x3d993f4e	0.074827775
215	0xbdeb4ef0	-0.114896655
216	0xbc2984d9	-0.010346615
217	0xbe1ccc78	-0.15312374
218	0x3e9b977b	0.30389008
219	0x3dc4d316	0.09610574
220	0xbe881664	-0.26579583
221	0xbe056ef9	-0.13030614
222	0x3e9cc982	0.30622488
223	0xbdc785af	-0.09742295
224	0xbcc136c7	-0.02358569
225	0x3e5b158a	0.21394935
226	0x3d4f945e	0.050678603
227	0x3e40c91d	0.18826719
228	0xbe2927f4	-0.16519147
229	0xbe1e18df	-0.15439175
230	0xbc6fc14e	-0.01463349
231	0x3d9b48c4	0.07582238
232	0x3bb23bb9	0.0054392484
233	0xbd8d4efa	-0.06899829
234	0xbd45ff4e	-0.04833918
235	0x3e382ab3	0.17985038
236	0x3e3d7d21	0.18504764
237	0x3e185d8b	0.14879434
238	0x3ea3ad4a	0.31968147
239	0x3e455cfc	0.19273752
240	0x3bfd4e2a	0.007730265
241	0xbe01c790	-0.12673783
242	0x3bd19020	0.006395355
243	0x3e0427af	0.12905763
244	0xbd9250ce	-0.071443185
245	0x3e98e4df	0.29862115
246	0x3d887bdd	0.0666425
247	0xbdb51682	-0.08842184
248	0x3d6ee222	0.058321126
249	0x3e9053f4	0.2818905
250	0x3e40b6cb	0.1881973
251	0xbe1d8190	-0.15381455
252	0xbda0f7eb	-0.078597866
253	0x3df317b6	0.11869757
254	0x3e943f21	0.28954414
255	0x3e8aa405	0.27078262

backbone.shared_mlp.bias f4 [1024]
0	0xbeaa21d0	-0.33228922
1	0xbe17373e	-0.14767167
2	0x3e2c58e7	0.16830789
3	0xbe5656f1	-0.20931603
4	0x3e0563e3	0.13026385
5	0x3e1600c4	0.1464873
6	0x3ead4faa	0.3384984
7	0xbe70b493	-0.23506384
8	0x3dc5c6dc	0.0965707
9	0x3e949923	0.29023084
10	0x3e851e37	0.25999615
11	0x3e01d1b7	0.12677656
12	0xbe9f9239	-0.31166247
13	0x3e8b3a8e	0.2719311
14	0x3e482def	0.19548772
15	0xbe01d96e	-0.12680599
16	0xbe92b498	-0.28653407
17	0x3e9a4d2c	0.30137002
18	0x3e19261e	0.14955947
19	0xbe0886cf	-0.13332675
20	0x3da34417	0.079719715
21	0x3debbb5e	0.11510347
22	0x3e48e01a	0.19616738
23	0xbda7b150	-0.081881166
24	0x3e6f915c	0.23395294
25	0x3e27e04c	0.16394156
26	0xbeb04b7d	-0.34432593
27	0xbeb90db8	-0.3614328
28	0x3ea892f5	0.3292462
29	0xbe67c7a3	-0.22634749
30	0x3dc7acc6	0.09749751
31	0x3c11f89f	0.008909374
32	0xbe209c9e	-0.15684745
33	0x3d02a083	0.031891357
34	0xbd93e1ae	-0.07220779
35	0xbe914da1	-0.2837954
36	0xbeb77b44	-0.35836232
37	0x3e60d94e	0.21957895
38	0x3e7261eb	0.23670165
39	0xbe1ecc47	-0.15507613
40	0xbeae5653	-0.34050235
41	0xbe9cbe9e	-0.3061418
42	0x3d8ac635	0.06776086
43	0xbdcd0686	-0.1001101
44	0x3e0409d8	0.1289438
45	0xbebcf046	-0.36902064
46	0x3d89d829	0.067306824
47	0x3dc25ada	0.09489985
48	0x3e8d1015	0.27551332
49	0xbdd3c463	-0.10340192
50	0xbc867165	-0.016411493
51	0x3dd10167	0.102053456
52	0x3d261a3b	0.04055236
53	0xbe12e605	-0.14345558
54	0x3deba507	0.11506086
55	0xbebd5d9e	-0.36985487
56	0x3e94e4c3	0.2908078
57	0xbe0d860b	-0.13820665
58	0x3dd16f6c	0.1022633
59	0xbe48db99	-0.1961502
60	0x3de96a1c	0.11397192
61	0x3bb5d689	0.005549256
62	0x3e95883c	0.292055
63	0xbde0e61d	-0.109813906
64	0x3c9e10a2	0.01929504
65	0xbeb37729	-0.3505185
66	0xbe7f47e9	-0.24929775
67	0xbe0b4038	-0.13598716
68	0xbdbc47e7	-0.09193402
69	0x3e1df42a	0.15425172
70	0xbd6d6e0f	-0.05796629
71	0x3e49b74d	0.1969883
72	0xbe400b9d	-0.1875443
73	0xbe2b68b0	-0.16739154
74	0xbe970921	-0.29499152
75	0x3e819b02	0.25313574
76	0xbe4c6d53	-0.19963579
77	0x3c872f13	0.016501939
78	0xbe3ede3c	-0.18639463
79	0xbea061fe	-0.31324762
80	0xbeba8a43	-0.3643361
81	0xbdce29e3	-0.10066583
82	0x3c9e7778	0.019344077
83	0x3c96e92a	0.018421728
84	0x3c99c385	0.018769989
85	0xbcc0e871	-0.023548337
86	0x3dfa025c	0.12207481
87	0xbe419775	-0.18905433
88	0x3e0b3ebf	0.13598154
89	0x3e0d1284	0.13776594
90	0xbe31c4c8	-0.17360222
91	0x3c4fa958	0.012674652
92	0xbebc0ad6	-0.36727017
93	0x3e14f9c5	0.14548405
94	0x3d7e0d0d	0.062024165
95	0x3d7f005a	0.062256195
96	0xbd73e1c1	-0.059541468
97	0xbea1f15a	-0.3162945
98	0x3ddc790e	0.10765277
99	0xbc3c047b	-0.011475678
100	0x3e565a08	0.20932782
101	0x3ebe1c3e	0.37130922
102	0x3eb423a7	0.3518345
103	0xbeb26560	-0.34842968
104	0x3e313031	0.1730354
105	0x3e9eef4f	0.31041953
106	0x3ebb8fa8	0.3663304
107	0xbe5dd9bd	-0.21665092
108	0x3e1d3743	0.15353112
109	0xbdd2b9e0	-0.10289359
110	0x3eab4030	0.3344741
111	0x3ccc2729	0.024921017
112	0x3e7c7a5d	0.24656053
113	0x3dbe9a8d	0.09306822
114	0xbd1f6f26	-0.03892436
115	0x3ea88e53	0.32921085
116	0xbea5d844	-0.3239156
117	0xbe917001	-0.28405765
118	0xbd2a4bb7	-0.041576114
119	0x3e32de8a	0.17467704
120	0xbca78ad0	-0.020451933
121	0xbd936b1a	-0.071981624
122	0x3dbd8e74	0.092556864
123	0xbdf82086	-0.12115578
124	0xbd36c8c8	-0.044625074
125	0xbe2a5170	-0.16632628
126	0x3e09e04f	0.13464473
127	0xbd595fad	-0.05306976
128	0x3d992d12	0.074792996
129	0x3e886b27	0.2664425
130	0x3dfc904e	0.123322114
131	0xbdf6d5a4	-0.120524675
132	0xbe548c03	-0.20756535
133	0x3eb19144	0.3468114
134	0xbe86a7b9	-0.26299837
135	0x3ebc7c8c	0.36813772
136	0x3ea6209b	0.3244675
137	0x3d9da8cf	0.07698213
138	0x3e62ef94	0.22161704
139	0xbd86e5b9	-0.06586785
140	0xbeb1b17f	-0.3470573
141	0x3e22fea8	0.15917456
142	0x3e5b90c9	0.2144195
143	0x3e3bb31e	0.18330047
144	0x3e9d5028	0.30725217
145	0x3e989675	0.2980229
146	0x3ea4e474	0.32205546
147	0x3e4a0546	0.19728574
148	0x3e795864	0.24350125
149	0x3e55c9e2	0.20877793
150	0xbd2ce8f0	-0.042214334
151	0x3d2ba1cb	0.041902345
152	0xbeb7ca22	-0.35896403
153	0x3ea26b64	0.31722558
154	0x3ebe009d	0.37109843
155	0xbe92da31	-0.28682092
156	0xbebd7ec2	-0.3701077
157	0xbddc2888	-0.10749918
158	0x3e743950	0.23849988
159	0xbe63b483	-0.22236829
160	0xbeaaba08	-0.33345056
161	0xbd114120	-0.0354625
162	0xbe8d96b9	-0.27654055
163	0xbea41985	-0.3205072
164	0x3e852498	0.2600448
165	0xbeb95481	-0.36197284
166	0x3e03f0b5	0.12884791
167	0x3ea267d9	0.31719854
168	0x3e6ef88f	0.23337005
169	0x3e560f75	0.20904334
170	0x3e28b671	0.16475846
171	0xbd975168	-0.07388574
172	0x3ea6243b	0.32449517
173	0xbe4c08ab	-0.19925182
174	0x3df75d42	0.120783344
175	0xbe12a604	-0.14321142
176	0xbdc0448a	-0.09388073
177	0xbe5803fa	-0.21095267
178	0xbeb336b9	-0.35002688
179	0x3e0b71bf	0.1361761
180	0xbe9d42a5	-0.30714908
181	0xbe8b98b9	-0.27264956
182	0xbc85a96e	-0.016316142
183	0x3e9a6a02	0.30159003
184	0xbd4c31cb	-0.049852174
185	0x3e8bd60f	0.2731175
186	0xbe562d60	-0.20915747
187	0xbe7c9468	-0.24665987
188	0xbeb5ba68	-0.3549378
189	0x3d74d4de	0.05977332
190	0x3e73e961	0.23819496
191	0xbe044ec5	-0.12920673
192	0xbdb856bb	-0.090009175
193	0xbd91c669	-0.07117922
194	0xbe196cb0	-0.14982867
195	0x3ddc3665	0.107525624
196	0xbdb35889	-0.08757121
197	0xbd4798d3	-0.04872973
198	0x3ebb2bfd	0.36556998
199	0x3e340a8b	0.17582147
200	0xbeb84287	-0.35988256
201	0x3e65fa05	0.22458656
202	0xbe06132e	-0.13093254
203	0x3e87249e	0.26395124
204	0x3ea22236	0.31666726
205	0x3e95ab7a	0.2923239
206	0x3d654670	0.055975378
207	0xbdc50dea	-0.096217945
208	0xbe96c21e	-0.29444975
209	0xbe79730c	-0.24360293
210	0xbe8297cf	-0.25506446
211	0x3d0775cb	0.03307132
212	0x3ddd69fa	0.10811229
213	0xbe7616ee	-0.24032184
214	0x3b9cd1dc	0.0047857594
215	0x3bd6df2e	0.006557367
216	0x3e42bfa1	0.19018413
217	0x3e8d933c	0.27651393
218	0x3da7328f	0.0816394
219	0xbdc8bc5e	-0.09801553
220	0xbe54d26d	-0.20783396
221	0xbea6de99	-0.32591704
222	0x3e8d0ab9	0.27547243
223	0xbe8b8461	-0.27249435
224	0x3d857a7a	0.06517501
225	0xbe31f111	-0.17377116
226	0x3dcbd3d1	0.0995251
227	0xbe8ec664	-0.27885735
228	0x3d514230	0.051088512
229	0x3e87c8ae	0.26520294
230	0xbe83eff6	-0.25769013
231	0x3d93c5cf	0.07215463
232	0xbe048714	-0.12942153
233	0xbcc658a6	-0.024212193
234	0x3e895f51	0.26830533
235	0x3e4b8460	0.19874716
236	0x3e2eac62	0.17057946
237	0x3e6df78f	0.23238967
238	0xbe8123de	-0.25222677
239	0x3e0cde4d	0.13756676
240	0xbe049385	-0.12946899
241	0xbe5e76a0	-0.2172494
242	0x3e72477b	0.2366008
243	0xbd378a64	-0.044809714
244	0x3ea823fc	0.32839954
245	0xbe3a6966	-0.18204269
246	0x3e8932b0	0.26796484
247	0x3ead1143	0.33802232
248	0x3ea173dd	0.3153371
249	0x3daa6e7c	0.083218545
250	0xbe38ab46	-0.18034086
251	0x3e46e83b	0.19424526
252	0xbe3e2b87	-0.18571292
253	0xbe5b56cc	-0.21419829
254	0x3d8c1987	0.068408065
255	0x3e870331	0.26369622
